Laboratories/Lab2_after_deadline/lab2_nim_evolving_nn/best_net.pt (torch, 5023 bytes, 6 tensors)

weight f4 [16, 8]
000000 95 43 8b 3e e9 a2 3b be d1 40 b0 3e 96 f0 76 3e
       0.27199998 -0.18323864 0.3442445 0.24115214
000010 2e 59 56 3e d5 3f a3 be f0 8e 97 3c a7 ab 54 be
       0.20932457 -0.31884637 0.018500775 -0.20768605
000020 e7 ac 97 3e 3c a0 d8 3d 90 cf 8a be a4 12 89 3d
       0.29624102 0.10577437 -0.27111483 0.066930085
000030 4a 81 27 3e 8e d8 6e 3e 18 c0 f7 bd 40 e0 8c 3d
       0.16357914 0.23324797 -0.12097186 0.0687871
000040 30 f3 ae be 95 9f 3e be 9c f4 d8 bd e0 74 06 3c
       -0.34169912 -0.18615563 -0.105935305 0.008206576
000050 12 8a dd bd f3 c6 90 3e bb c8 9b 3e 38 0e b8 bd
       -0.108173504 0.28276786 0.30426583 -0.08987087
000060 62 e1 3e 3e 2e 45 9f be 36 d6 58 be ca 37 79 3e
       0.18640664 -0.31107467 -0.21175465 0.24337688
000070 d0 d9 8b bd 20 7e 89 3d ee 9e 64 be 50 21 94 bc
       -0.06828654 0.067135096 -0.22326252 -0.01808229
000080 c0 35 e8 3b ac 4a 79 be 70 66 8f 3c 00 06 42 3a
       0.0070864856 -0.24344891 0.0175049 0.0007401407
000090 1e f0 5f be 83 0f 31 be f8 f5 25 be e6 76 71 be
       -0.21868941 -0.17291074 -0.16207111 -0.23580512
0000a0 b6 80 3d 3e 7d c9 a2 3e 48 f7 8c bd 80 28 bb 3c
       0.1850613 0.31794348 -0.06883103 0.02284646
0000b0 68 7d 11 3d fa 9e 9a be 07 3b ac 3e 2c e3 b1 be
       0.035519987 -0.30199414 0.33638784 -0.3474363
0000c0 5a c0 54 3e ac 75 bc 3d 1d 27 a8 be 8d 04 6c be
       0.20776501 0.09202132 -0.3284234 -0.23048611
0000d0 a0 19 2c be 65 a1 87 3e f4 af b7 3d d0 82 2b be
       -0.1680665 0.26490322 0.08969107 -0.1674912
0000e0 ce 2e 61 3e 1a 11 8c be 50 fc 4a 3d b3 5a 80 be
       0.21990511 -0.27356797 0.04955703 -0.25069198
0000f0 d4 17 85 be 64 cf b1 be b0 e3 bc 3d ea 99 6d 3e
       -0.25994742 -0.3472854 0.092231154 0.23203245
000100 c0 38 ff 3b a0 ac a3 3d 48 d0 05 3d fe bf 23 3e
       0.0077887475 0.0799191 0.032669336 0.15991208
000110 35 54 a1 3e 70 5d e5 3d 25 aa b4 3e 1f e7 1a be
       0.31509557 0.111994624 0.3528606 -0.15127228
000120 da a2 10 3e f1 b3 9b be 36 00 7c be a5 9a b3 3e
       0.14124623 -0.30410722 -0.24609455 0.35078922
000130 8b d9 8d 3e da bd fd bd 00 60 31 be f9 c3 92 3e
       0.27705035 -0.12389727 -0.17321777 0.2866514
000140 10 f4 0f bd 1a a4 84 be c0 7f 4e 3d 14 c8 a5 bd
       -0.035144866 -0.2590645 0.0504148 -0.080948025
000150 e2 dd 12 be ae 42 96 be ef 91 43 be 08 50 10 bd
       -0.14342454 -0.29347748 -0.19098638 -0.035232574
000160 86 0d a7 be c8 0d 39 bd 64 da 9f be c0 92 f2 bc
       -0.32627505 -0.04517916 -0.31221306 -0.029610991
000170 d4 89 1a be 64 f0 0c 3e 6e bd 11 be 80 46 39 bd
       -0.1509164 0.13763577 -0.14232418 -0.04523325
000180 82 7d e8 bd b2 a5 45 3e d4 ec b6 3d ff a9 6b be
       -0.11352064 0.19301489 0.0893189 -0.23014067
000190 5f 6f 96 be 78 db 82 bd d9 c0 92 3e 1a e1 1f 3e
       -0.29381844 -0.063895166 0.28662756 0.15613213
0001a0 d0 2e 03 3d 30 cf f9 3c f8 8b 97 3d fa 4f 67 3e
       0.032027066 0.030494303 0.07399744 0.22589102
0001b0 d8 66 a4 be 40 d3 e7 3d 98 c8 d6 3d 72 13 6c be
       -0.32109714 0.113195896 0.10487479 -0.23054293
0001c0 c0 a0 52 bd 00 65 91 3a c0 eb d4 bb 60 91 5a bc
       -0.051422834 0.0011092722 -0.00649783 -0.013340324
0001d0 72 71 6e be 58 22 10 bd 8f e9 3f be a5 ec 96 3e
       -0.23285463 -0.035189003 -0.1874144 0.2947742
0001e0 2d a2 3c be 05 23 88 3e 14 bb 9c 3d ca e5 5e 3e
       -0.1842124 0.26589218 0.0765287 0.21767345
0001f0 dd 11 99 3e aa 66 04 be 9c 4b a5 bd dc b0 e8 3d
       0.2989644 -0.12929788 -0.08071062 0.11361858

bias f4 [16]
000000 00 1e 62 bb 26 88 3b 3e 40 1d d1 3b 98 93 1c be
       -0.0034502745 0.18313655 0.0063816607 -0.15290678
000010 82 42 32 3e 00 17 f0 3d 0a 99 74 3e 86 d8 5a 3e
       0.17408183 0.11723137 0.23886505 0.2137166
000020 d2 ac 8c be f8 27 4b bd 61 75 87 3e 5e 9f 0c be
       -0.274756 -0.049598664 0.2645674 -0.13732669
000030 18 6c 22 bd 68 d8 84 be 88 8e 67 3d c0 e4 71 bd
       -0.039653867 -0.25946355 0.056532413 -0.059056044

weight f4 [8, 16]
000000 8a c2 57 3e 78 b3 e5 3d 9a 02 69 3e 94 99 89 bd
       0.21070305 0.112158716 0.22754899 -0.06718746
000010 08 6a 3d bd 70 df e1 bd 0c 18 2d 3e 4c 67 72 3e
       -0.046243697 -0.110289454 0.16903704 0.23672217
000020 d4 97 c3 3d 64 c4 ff bd c8 c7 00 3d 40 5b eb 3b
       0.09550443 -0.124886304 0.031440526 0.0071825087
000030 14 49 04 3e 36 5b 35 3e 5e 0c 19 3e a6 a6 64 be
       0.12918502 0.17710575 0.14946124 -0.22329196
000040 80 c5 2b 3d dc 27 fb bd 1c cd 13 be 34 20 ec bd
       0.041936398 -0.12263462 -0.14433712 -0.1152958
000050 a4 28 ab bd 94 d1 87 3d f2 9e 45 3e f4 b4 c5 3d
       -0.08357361 0.06631771 0.19298914 0.09653655
000060 aa 6a 7b be ba 50 0b 3e 2c 04 53 3e 5e 09 3e be
       -0.24552408 0.13605013 0.2060706 -0.18558261
000070 92 1b 20 3e a0 56 c4 bc 60 d8 82 3c 2c d2 e0 bd
       0.15635517 -0.023967087 0.015972316 -0.10977587
000080 a8 07 4b be b0 2a dc 3d f8 55 5a be 02 79 62 be
       -0.1982714 0.107503295 -0.21321857 -0.22116473
000090 98 bb 78 3d 80 aa f0 bd 7e b2 1f 3e 00 12 38 3e
       0.06072578 -0.1175127 0.15595433 0.17975616
0000a0 28 01 54 be 6a 32 30 be a6 4a 58 be a8 33 76 be
       -0.20703566 -0.17206731 -0.21122226 -0.24043143
0000b0 54 d6 9b bd 66 2f 29 be d4 dd 55 3e 56 59 5a be
       -0.07609239 -0.16521987 0.20885402 -0.21323141
0000c0 20 33 e7 3d 00 1b b2 bb 3a 81 7f be 00 8d ae bb
       0.11289048 -0.0054353476 -0.2495164 -0.005326867
0000d0 7e 90 05 3e e4 6d 37 be 40 35 55 bc fa 6e 1f be
       0.130434 -0.17913014 -0.013013184 -0.15569678
0000e0 0a da 70 3e 30 e0 7c 3e 8a 5d 16 3e 00 31 3e 3b
       0.23520675 0.24694896 0.1468412 0.0029020905
0000f0 68 6d 6b be 64 0e f8 bd a8 6b eb bd 58 cb dc bd
       -0.22990954 -0.1211212 -0.11495143 -0.10780972
000100 aa 54 25 3e 40 15 34 3c b4 ea e2 bd e6 31 1d be
       0.16145578 0.0109913945 -0.11079922 -0.15351066
000110 9e 69 29 3e d8 0e 50 3e 0c 7c 39 3e 60 fe 18 3c
       0.16544196 0.20318162 0.18113726 0.0093379915
000120 00 bf df ba 4e 1e 57 3e 3e 21 05 3e 40 10 8b 3b
       -0.0017070472 0.21007654 0.13000962 0.0042438805
000130 40 91 3e 3e 50 86 1f bd 94 1b f3 3d ee f7 6d be
       0.18610096 -0.03894645 0.118704945 -0.23239109
000140 34 30 db bd 88 59 48 3d 60 a5 1c bc 8e 7d 13 be
       -0.107025534 0.04891351 -0.009560913 -0.14403364
000150 d6 8b 42 be 30 33 ca bc 58 47 41 bd 08 b4 29 be
       -0.18998656 -0.024682611 -0.04718718 -0.16572583
000160 32 18 48 3e d4 87 96 3d 48 77 90 3d e0 38 d3 bc
       0.1954048 0.07350126 0.07054001 -0.025783956
000170 e8 60 61 bd 40 c3 92 3c 20 a0 9a 3d 14 78 5e be
       -0.055024058 0.017915368 0.07550073 -0.21725494
000180 64 9f 9e 3d a4 30 f6 bd 6e e3 6c be a0 88 d2 3d
       0.07745245 -0.12020996 -0.23133633 0.102799654
000190 9a 1c 5a 3e 10 3e f1 3c b0 cf 1a 3d 60 db 82 bc
       0.21299973 0.029448539 0.037795722 -0.015973747
0001a0 c0 d9 f4 bd d0 a3 5a 3d 28 8f 7b 3d c0 50 b0 bb
       -0.11955595 0.05337888 0.06141582 -0.00538072
0001b0 68 0f d8 3d e0 cb 0f be b8 52 28 3d f0 64 e6 3c
       0.105498135 -0.14042616 0.04109451 0.028124303
0001c0 00 45 d2 3c ac c5 96 bd 38 80 6e be f4 3a df bd
       0.025667667 -0.07361922 -0.23291099 -0.10899916
0001d0 54 6f e5 bd c0 79 f5 bc e4 38 64 3e 32 16 66 be
       -0.11202875 -0.029965281 0.22287327 -0.22469404
0001e0 50 26 b7 3d 48 65 34 3e 5c 27 19 be c6 b5 6e be
       0.089428544 0.1761676 -0.1495642 -0.23311529
0001f0 84 46 69 be d4 bd 70 3e c0 95 01 bc f0 a6 b3 bc
       -0.22780806 0.23509914 -0.007909238 -0.021930188

bias f4 [8]
000000 32 ce 26 3e b8 8c 10 3e 8e d2 6e 3e 20 ad 14 bd
       0.16289595 0.1411618 0.23322508 -0.036297917
000010 18 1c 4b be b0 94 4d 3e 10 d5 dd bd e8 8d fd 3d
       -0.19834936 0.20076251 -0.10831654 0.12380582

weight f4 [2, 8]
000000 66 a9 df bd ef 65 87 3e 11 ea 99 be 18 20 79 bd
       -0.10920982 0.26444957 -0.3006139 -0.060821623
000010 d7 c4 57 be 4b c3 82 3e 38 85 8b bd 61 3e 99 3e
       -0.21071182 0.25539622 -0.06812519 0.29930404
000020 0c 94 bf bd 93 a0 a2 be 38 49 aa be 63 75 03 be
       -0.093544096 -0.31763133 -0.33258986 -0.12837748
000030 b8 d2 05 3e 4d 4f 8b 3e 7a 10 68 3e 02 32 d6 bd
       0.13068664 0.2720894 0.22662535 -0.10458757

bias f4 [2]
000000 58 da a9 bd ba a3 58 3e
       -0.08293599 0.21156207
